model/dqn_cartpole_200.pth (torch, 72769 bytes, 6 tensors)

fc1.weight f4 [128, 4]
0	0x3e177b3e	0.14793107
1	0xbebd39d9	-0.36958197
2	0x3efb7525	0.49112812
3	0xbb767183	-0.003760428
4	0x3e9a7564	0.30167687
5	0xbd33f57c	-0.043935284
6	0xbec531e2	-0.3851462
7	0x3ea4ac91	0.32162908
8	0x3c40627d	0.011742231
9	0xbe5e3276	-0.21698937
10	0x3ea7b94d	0.3275856
11	0x3e13b68e	0.14425108
12	0x3de6db66	0.11272316
13	0x3ea28f48	0.3174994
14	0x3ea73c81	0.32663348
15	0x3eed280b	0.46319613
16	0x3e15d394	0.14631492
17	0xbd09a650	-0.033605874
18	0xbe9cea03	-0.30647287
19	0x3ebbe542	0.36698347
20	0x3efc85b2	0.4932075
21	0xbea220e9	-0.31665733
22	0xbdf35eac	-0.118832916
23	0xbebac767	-0.36480257
24	0x3ec63f23	0.38720044
25	0xbd8a16ca	-0.06742628
26	0xbea21241	-0.31654552
27	0xbec7383d	-0.38910094
28	0x3d9e3dc0	0.07726622
29	0xbe8fc14c	-0.2807716
30	0x3f10564f	0.56381696
31	0x3d92abac	0.0716165
32	0xbe85bad7	-0.2611911
33	0xbe491e1d	-0.19640394
34	0x3ec61537	0.3868806
35	0x3e2ac640	0.16677189
36	0x3f0f5ec3	0.5600397
37	0x3cdfb849	0.027309554
38	0xbd156d1f	-0.03648102
39	0x3ed9af13	0.42516384
40	0xbe55e595	-0.2088836
41	0x3eec2f4c	0.46129835
42	0xbda5374a	-0.08067186
43	0xbebae314	-0.36501372
44	0x3b97c517	0.0046316492
45	0x3ea3db20	0.32003117
46	0x3e8be841	0.27325633
47	0x3d9cbb1d	0.076528765
48	0x3daf4e20	0.08559823
49	0x3d32e694	0.043676928
50	0x3befa071	0.0073128273
51	0xbebf7a81	-0.3739815
52	0xbec1192d	-0.3771452
53	0xbeccf6e3	-0.4003211
54	0xbe20f794	-0.15719444
55	0x3daf09d2	0.08546795
56	0xbc92e232	-0.017930124
57	0xbec3acac	-0.38217676
58	0xbf016a07	-0.5055241
59	0x3e1f0bc7	0.15531836
60	0xbe01d559	-0.12679042
61	0x3e6b27f9	0.22964467
62	0x3ec96034	0.3933121
63	0xbeae32cf	-0.3402314
64	0x3e18ab55	0.14909108
65	0xbeb53cec	-0.35398042
66	0x3cd89a95	0.026440898
67	0x3e347930	0.17624354
68	0x3e7ad50b	0.24495332
69	0xbeaf6fb9	-0.34264925
70	0xbe1efb49	-0.15525545
71	0xbeeb06c5	-0.45903602
72	0xbe823a96	-0.25435323
73	0xbd3dce4a	-0.04633931
74	0xbe609b96	-0.21934351
75	0xbea5177b	-0.32244477
76	0x3e237cf3	0.15965633
77	0xbce17c53	-0.027525103
78	0xbe0623d5	-0.13099606
79	0x3e994018	0.29931712
80	0xbdf12b0b	-0.11775788
81	0xbeaca793	-0.337216
82	0xbec4963c	-0.3839587
83	0x3eda6a9d	0.42659464
84	0x3de12ee5	0.109952725
85	0xbf030280	-0.5117569
86	0xbe2b286e	-0.16714641
87	0xbec24ba6	-0.3794834
88	0x3e9f88b0	0.31158972
89	0x3ef32d19	0.47495344
90	0xbe4ce7ea	-0.20010343
91	0xbe83d8f5	-0.25751463
92	0x3d930de3	0.07180383
93	0x3ee271c9	0.44227436
94	0x3e06aa92	0.13151005
95	0x3d007c2a	0.031368412
96	0x3e4730b7	0.19452177
97	0x3dd7af27	0.105314545
98	0xbe5933dc	-0.21211189
99	0xbdb0289c	-0.086014956
100	0x3eaa52e9	0.3326638
101	0x3e5db55e	0.21651217
102	0x3f09af9b	0.5378358
103	0xbe7f78f3	-0.24948482
104	0x3db7a0c5	0.08966211
105	0xbee2422d	-0.44191113
106	0x3e36c897	0.17849956
107	0x3d24cec3	0.040236246
108	0x3e246ea1	0.16057827
109	0xbe9d1cbd	-0.30685988
110	0xbebe8399	-0.37209776
111	0xbe4cabd4	-0.19987422
112	0x3e140b2a	0.14457384
113	0xbee3092b	-0.44342932
114	0xbc8c8b76	-0.017156344
115	0xbde2eae6	-0.110799596
116	0x3e21a1a1	0.15784313
117	0x3ca345ef	0.019930808
118	0xbedafa7b	-0.42769226
119	0x3e2f3512	0.17110088
120	0xbe5f7aad	-0.21824141
121	0xbda14439	-0.078743406
122	0xbd96d844	-0.07365468
123	0x3ea353ec	0.31899965
124	0xbec02f26	-0.3753597
125	0xbef031ca	-0.46912986
126	0xbe967ab6	-0.29390496
127	0xbe8d66f8	-0.2761762
128	0xbea00653	-0.31254825
129	0x3bbf41a7	0.005836684
130	0xbee8aa12	-0.45442253
131	0xbe211286	-0.15729722
132	0x3d6e9cb3	0.05825491
133	0xbe1e14f9	-0.15437688
134	0xbdc35cf7	-0.09539216
135	0xbe793409	-0.24336256
136	0x3dd0b9da	0.10191698
137	0xbe8acf20	-0.2711115
138	0xbe925ca3	-0.285863
139	0x3ed99c63	0.42502126
140	0x3eb05da5	0.34446445
141	0x3e0569f5	0.130287
142	0xbdfd3b5e	-0.12364839
143	0x3eb0295c	0.34406555
144	0xbeca0c34	-0.39462435
145	0xbeeb3ad5	-0.45943323
146	0x3e582500	0.21107864
147	0xbb16109b	-0.0022898081
148	0xbefc26c8	-0.49248338
149	0xbede7fe6	-0.43456954
150	0x3e0bf6f9	0.13668431
151	0xbea18054	-0.3154322
152	0xbe5c40ec	-0.2150914
153	0x3db7637f	0.08954524
154	0xbe96e078	-0.2946813
155	0xbebda889	-0.37042645
156	0xbd409872	-0.047020383
157	0xbd9e13de	-0.07718633
158	0xbf075a72	-0.52872384
159	0xbe5916d5	-0.21200116
160	0x3e693980	0.22775841
161	0x3ee5b750	0.4486642
162	0xbd8d60fa	-0.069032624
163	0xbe038ee3	-0.12847476
164	0xbec0550c	-0.37564886
165	0xbda0f925	-0.078600205
166	0x3ea185f3	0.31547508
167	0x3e3eb63a	0.18624201
168	0x3e514d90	0.20439744
169	0xbdb70c55	-0.08937899
170	0xbe28cf43	-0.16485314
171	0x3e1a1e24	0.1505056
172	0xbe0d2ce0	-0.1378665
173	0xbd2b6331	-0.041842643
174	0xbe419cf2	-0.18907526
175	0xbe26c8f4	-0.16287595
176	0x3cb94636	0.022616487
177	0xbe8e523b	-0.27797112
178	0xbe92818d	-0.28614464
179	0xbd5edcbd	-0.05440973
180	0x3ec57e5c	0.38572967
181	0xbdd069b5	-0.10176412
182	0xbe854961	-0.26032546
183	0x3e15915e	0.14606234
184	0xbd4267e7	-0.04746237
185	0x3e2aa4dc	0.16664451
186	0xbe3d63e6	-0.1849514
187	0xbe903d37	-0.28171703
188	0xbf11ad26	-0.5690483
189	0xbe9f4e3f	-0.31114385
190	0x3dff839b	0.124762736
191	0x3ec61528	0.38688016
192	0xbdc809b6	-0.09767477
193	0xbd35b2c3	-0.044359934
194	0x3e82ede0	0.2557211
195	0x3e93adeb	0.28843626
196	0x3df7efc1	0.12106276
197	0xbdcae878	-0.09907621
198	0xbf2aca3d	-0.6671484
199	0xbe934c8c	-0.28769338
200	0x3ede1294	0.4337355
201	0xbe8ef200	-0.27919006
202	0xbc48402a	-0.012222329
203	0xbe6c81d5	-0.23096402
204	0xbef28a12	-0.47370964
205	0xbec3e99f	-0.38264176
206	0x3e457563	0.1928306
207	0x3d329ba7	0.043605473
208	0x3ebf4650	0.37358332
209	0xbd9ad049	-0.075592585
210	0x3c542642	0.0129485745
211	0xbecf4d42	-0.4048863
212	0xbd206e57	-0.03916773
213	0x3efcd50d	0.49381295
214	0x3eafd600	0.34342957
215	0xbd7b5b9e	-0.06136667
216	0xbb9e5500	-0.00483191
217	0xbe751ecc	-0.2393753
218	0xbefa73be	-0.4891643
219	0xbe0fdcc0	-0.14049053
220	0x3ea66099	0.32495573
221	0xbf01cb05	-0.5070041
222	0xbf1dd2f7	-0.6165003
223	0xbea3cad8	-0.31990695
224	0xbdde709f	-0.108613245
225	0xbe76b4a8	-0.24092352
226	0x3ebc18f4	0.36737788
227	0xbab399fa	-0.0013702505
228	0xbee480ab	-0.44629416
229	0x3ecf8f78	0.40539145
230	0xbccadd5a	-0.024763752
231	0xbedafe20	-0.42772007
232	0x3ed1d9b0	0.40986395
233	0xbe87423c	-0.2641772
234	0xbee217ce	-0.44158787
235	0xbe283d18	-0.16429555
236	0xbce3b9b2	-0.027798507
237	0x3e9f66ea	0.31133205
238	0xbed02711	-0.40654805
239	0xbe0593fc	-0.13044733
240	0xbedee12b	-0.43531165
241	0x3e044565	0.12917097
242	0x3eb8c16b	0.36085066
243	0x3e209051	0.15680052
244	0x3e7c1288	0.24616444
245	0xbd722630	-0.05911845
246	0xbe916e9e	-0.28404707
247	0xbdaee140	-0.08539057
248	0x3ee28d87	0.44248602
249	0x3e5988eb	0.21243636
250	0x3e64e844	0.22354227
251	0x3ef6936c	0.4815935
252	0xbeb49c3b	-0.35275444
253	0x3dc3843a	0.095467046
254	0x3e9e296a	0.3089097
255	0xbd4bb6de	-0.049734943

fc1.bias f4 [128]
0	0xbda55662	-0.08073117
1	0xbe6b3530	-0.22969508
2	0x3e9f1e1c	0.3107766
3	0xbe9f0c11	-0.31063893
4	0x3ed33cb2	0.41257244
5	0xbe105169	-0.14093556
6	0xbee4c8e8	-0.4468453
7	0xbe954424	-0.2915355
8	0x3e9488b9	0.2901056
9	0x3eb9863f	0.36235234
10	0xbeaa642f	-0.3327956
11	0x3ec4c5df	0.38432214
12	0xbece61cd	-0.4030899
13	0xbd9af79c	-0.07566759
14	0x3e5604b1	0.20900227
15	0xbe3a3dd1	-0.18187644
16	0x3ef10ed0	0.47081614
17	0x3d905afe	0.070486054
18	0xbd3b0fd0	-0.045669377
19	0xbddf958c	-0.10917196
20	0x3e60725a	0.21918622
21	0x3e6f1af2	0.23350123
22	0xbddddd13	-0.10833182
23	0xbec7d6be	-0.39031023
24	0x3ed387f8	0.41314673
25	0x3eb02245	0.34401146
26	0x3e1a1d9e	0.1505036
27	0x3e212cfe	0.1573982
28	0x3ea9a9ab	0.3313726
29	0x3cf06fe3	0.029350227
30	0x3edb1e60	0.42796612
31	0x3e19750d	0.14986058
32	0xbe161193	-0.14655142
33	0x3e97bb77	0.29635212
34	0x3ebe12bb	0.37123665
35	0x3d9ee991	0.07759393
36	0x3d6c0dc1	0.057630304
37	0x3ecddf08	0.40209222
38	0xbe365149	-0.17804445
39	0xbd8ba830	-0.068191886
40	0x3d4185dc	0.0472468
41	0x3e95cebe	0.29259294
42	0xbe413e5d	-0.18871446
43	0x3e9907bd	0.29888716
44	0xbda163f5	-0.078803934
45	0x3ef7d80a	0.48407012
46	0x3edd8836	0.43267983
47	0x3d2323e4	0.03982915
48	0x3df28946	0.11842589
49	0xbefe2d1d	-0.49643794
50	0x3e9e2ab0	0.30891943
51	0xbd01e1b9	-0.031709407
52	0xbe2723d0	-0.16322255
53	0x3e73004e	0.23730585
54	0xbe58f998	-0.21188962
55	0xbd5dcc83	-0.054150116
56	0x3f0350fe	0.5129546
57	0x3e79181a	0.243256
58	0xbed49666	-0.41520995
59	0x3d50ab37	0.050944533
60	0xbd747d3c	-0.059689745
61	0xbecf7b54	-0.4052378
62	0x3d87a890	0.066239476
63	0x3eb2c40a	0.3491519
64	0xbe97d8d7	-0.29657623
65	0x3e0b14e0	0.13582182
66	0x3dd3bc6a	0.103386715
67	0xbe94238d	-0.28933373
68	0xbe28718b	-0.16449563
69	0x3ece79ed	0.40327397
70	0xbf0217dc	-0.50817657
71	0xbeb4b26d	-0.35292378
72	0x3f04fbc0	0.5194664
73	0x3ec533a9	0.38515976
74	0x3ef665a8	0.48124433
75	0xbe2a5c3d	-0.16636749
76	0x3e0ea5b5	0.139304
77	0x3e81b51d	0.2533349
78	0xbee2881c	-0.44244468
79	0x3e22a4b7	0.15883146
80	0x3ecfca16	0.40583867
81	0x3ca3ab17	0.019979043
82	0x3ed8c425	0.42337146
83	0xbcafe7fd	-0.021472925
84	0x3e0cd98f	0.13754867
85	0xbd46bd65	-0.048520464
86	0xbeaf2928	-0.34211087
87	0x3db6eb59	0.08931608
88	0x3edff679	0.4374273
89	0x3e80800e	0.25097698
90	0x3eac31c8	0.3363173
91	0x3db69b6c	0.08916363
92	0xbeaf02e0	-0.3418188
93	0xbc4a86f8	-0.012361281
94	0xbf00b39f	-0.5027408
95	0x3eeade2f	0.45872638
96	0xbed64f64	-0.41857445
97	0x3e00b713	0.12569837
98	0x3eb717f9	0.35760477
99	0x3ee26af9	0.4422224
100	0x3e1bab64	0.15202099
101	0x3d958852	0.07301392
102	0xbe42fa3e	-0.19040772
103	0x3eebee29	0.4608014
104	0x3e83cf89	0.25744274
105	0x3f00772a	0.5018183
106	0x3e13b495	0.14424355
107	0xbea6adb4	-0.325544
108	0x3e9aa10c	0.30200994
109	0xbea9dc6e	-0.33175987
110	0xbefc0e04	-0.49229443
111	0x3e9e5303	0.30922708
112	0xbe79b719	-0.24386252
113	0x3ea7cd19	0.32773665
114	0x3ed90ae9	0.42391136
115	0x3e7db33c	0.24775404
116	0x3dba420e	0.0909463
117	0xbd51ecd0	-0.051251233
118	0x3ddb04cb	0.106942736
119	0x3ec10887	0.37701818
120	0xbebbf7a9	-0.36712387
121	0x3e4cf715	0.2001613
122	0x3e20f02c	0.15716618
123	0x3d47a2b6	0.048739158
124	0xbe604ecc	-0.21905059
125	0xbeca124e	-0.3946709
126	0xbce01c65	-0.02735729
127	0xbea6fa8f	-0.32613036

fc2.weight f4 [128, 128]
0	0xbb53324c	-0.0032226024
1	0xbd4f8785	-0.05066635
2	0x3d2ab7eb	0.041679304
3	0x3d153abe	0.036432974
4	0x3ca189bd	0.019718999
5	0xbd6deb91	-0.05808598
6	0xbd02b38c	-0.03190951
7	0x3d9c974f	0.07646047
8	0x3aa0f78a	0.0012280804
9	0x3cc2a496	0.023760121
10	0xbc78f597	-0.015195272
11	0x3d884535	0.06653825
12	0xbcb68a51	-0.022282751
13	0xbcc7634e	-0.024339344
14	0x3d588889	0.052864585
15	0xbc722fdd	-0.014781919
16	0x3ca55806	0.020183574
17	0x3c198896	0.0093709435
18	0xbccb0318	-0.024781749
19	0xbb30fa35	-0.0027004604
20	0xbd837104	-0.064180404
21	0xbc0cf949	-0.008604356
22	0xbcc4b40a	-0.02401163
23	0x3cd07261	0.025445165
24	0x3cfdc502	0.03097773
25	0xbd55b518	-0.052174658
26	0x3c5ff89e	0.013670115
27	0xbbd4e7e2	-0.006497369
28	0xbcf3cfe8	-0.029762223
29	0xbd4d1632	-0.050069995
30	0xbd6624fe	-0.056187622
31	0x3d84b1f9	0.06479258
32	0x3d6a9dfa	0.057279564
33	0x3d944fbd	0.07241771
34	0xbd81cf39	-0.06338353
35	0x3da735b8	0.08164543
36	0x3d592cda	0.05302129
37	0xbd52988b	-0.051415008
38	0x3d35c286	0.044374965
39	0x3d8158ab	0.0631574
40	0xbd8eb0cf	-0.06967317
41	0x3cf8e446	0.030382287
42	0xbb590970	-0.0033117197
43	0x3dc86d96	0.09786527
44	0x3cba616c	0.022751532
45	0x3d40e9f2	0.047098108
46	0xbadfe7a2	-0.0017082582
47	0x3d9ed6e4	0.07755831
48	0x3d5089d2	0.050912686
49	0xbd9267bd	-0.07148693
50	0xbd29d4f8	-0.04146287
51	0xbd112f35	-0.03544541
52	0xbd9b2e7e	-0.07577227
53	0x3d980882	0.07423498
54	0x3d4c1f16	0.049834333
55	0xbc98c786	-0.018649828
56	0x3cae3010	0.021263152
57	0x3d330b8b	0.04371218
58	0xbd90b2d5	-0.070653595
59	0xbc9ce2fa	-0.0191512
60	0x3d894e55	0.06704394
61	0x3d8d2e57	0.06893604
62	0x3ce2f97c	0.027706854
63	0xbd021639	-0.031759474
64	0x3d375e50	0.044767678
65	0x3cbb93cb	0.022897622
66	0x3ca59d06	0.020216476
67	0xbd5f6b8b	-0.05454592
68	0x3d52caeb	0.05146305
69	0xbc3d6ead	-0.011562032
70	0xbdb28275	-0.08716289
71	0xbce106e8	-0.027469113
72	0xbc4dfe61	-0.012572856
73	0x3c09157a	0.008366937
74	0xba577d69	-0.00082202867
75	0xbdb2c657	-0.087292366
76	0x3dc5d730	0.096601844
77	0x3dae58c6	0.08513026
78	0x3d9b7541	0.07590724
79	0xbd36aa2e	-0.04459589
80	0xbc0236ab	-0.007947604
81	0xbdb1a3f0	-0.08673847
82	0x3d9ba857	0.07600468
83	0x3d3e30e6	0.046433352
84	0xbd4f4cb6	-0.050610267
85	0xbced32fa	-0.028954972
86	0xbd92fe44	-0.071774036
87	0x3d320fd2	0.04347212
88	0x3d8ee593	0.069773816
89	0x3dad5f27	0.084654145
90	0x3ce95efa	0.028487671
91	0x3d1c0a91	0.038096014
92	0xba88c335	-0.0010434153
93	0x3d18c16a	0.03729383
94	0xbd9ad821	-0.075607546
95	0xbd36734e	-0.044543557
96	0x3cafb341	0.02144778
97	0xbc11ce81	-0.008899332
98	0xbbdc3a61	-0.0067208265
99	0x3d8f3f30	0.06994474
100	0x3ca129e8	0.019673303
101	0x3db37e87	0.087643676
102	0xbd8eb832	-0.06968726
103	0x3d1c4d54	0.038159683
104	0x3d862f98	0.065520465
105	0x3dca8489	0.0988856
106	0xbd8b5ef9	-0.06805224
107	0x3d81cf59	0.063383766
108	0x3d1787cc	0.03699474
109	0xbdc75be8	-0.097343266
110	0xbdc24383	-0.09485533
111	0x3b0db501	0.002162278
112	0x3d569237	0.052385535
113	0x3d4f3678	0.050589055
114	0x3d244b8d	0.040111113
115	0xbc0535c6	-0.008130496
116	0x3d54322a	0.051805653
117	0xbd8d1a68	-0.06889802
118	0xbd75d519	-0.06001768
119	0xbbf5aa14	-0.0074970815
120	0xbcdca87e	-0.026935812
121	0x3bb49bbf	0.0055117304
122	0x3d2d8b46	0.04236915
123	0x3d973803	0.0738373
124	0x3d0f4680	0.034979343
125	0xbd555f7f	-0.052093025
126	0x3daa279f	0.083083384
127	0x3c3f3608	0.011670597
128	0xbd954fcd	-0.072906114
129	0x3d39dcee	0.04537671
130	0xbcc6fc9f	-0.024290381
131	0xbd8961d5	-0.06708113
132	0xba0c4a0c	-0.000535161
133	0xbd4bf7e9	-0.049796972
134	0xbd8647aa	-0.065566376
135	0x3d4f213a	0.050568797
136	0x3c02e462	0.007989021
137	0x3d6a2772	0.057166524
138	0xbd90ff92	-0.07079996
139	0x3da4079d	0.080092646
140	0xbd011e5d	-0.031523097
141	0x3d8fff23	0.07031085
142	0x3d2b0247	0.04175022
143	0x3c556b12	0.013026016
144	0x3d936353	0.07196679
145	0xbd84a156	-0.06476085
146	0x3da37711	0.079816945
147	0xbd87ab3d	-0.06624458
148	0x3da12919	0.07869167
149	0xbbb5819a	-0.0055391314
150	0x3d9c42c9	0.07629926
151	0xbda8688f	-0.08223068
152	0xbdbbd3b2	-0.09171237
153	0xbda9c0b0	-0.08288705
154	0x3bb71619	0.005587351
155	0xbda8a2c7	-0.08234172
156	0xbcd6404f	-0.026153712
157	0x3d5bf502	0.053700455
158	0xbd529d7c	-0.05141972
159	0xbb12cec4	-0.0022401074
160	0xbcf1ab71	-0.029500695
161	0xbd479d88	-0.048734218
162	0xbd32e60b	-0.043676417
163	0xbdae419e	-0.08508609
164	0x3cc7b6ac	0.024379097
165	0x3d503c49	0.050838742
166	0xbd3d99db	-0.046289306
167	0xbd65e6cb	-0.056128304
168	0xbb17900d	-0.0023126632
169	0xbc8132a2	-0.015771214
170	0x3db28027	0.08715849
171	0x3d9772e4	0.073949605
172	0x3d46a6f2	0.048499055
173	0xbcb3b72d	-0.021937931
174	0xbd10233b	-0.03518985
175	0x3c429950	0.011877373
176	0xbdb7c9ab	-0.08974012
177	0x3c4ef630	0.012631938
178	0xbcbf6f3a	-0.023368467
179	0xbda8cb57	-0.08241909
180	0x3cd2f7cf	0.02575293
181	0xbd81d0db	-0.06338664
182	0xbc512d18	-0.012767099
183	0xbd069322	-0.03285516
184	0xbdab7746	-0.08372359
185	0xbb5518de	-0.0032516043
186	0x3d4addda	0.04952798
187	0xbd92cbb7	-0.07167762
188	0xbc0e1f60	-0.008674473
189	0x3cc18464	0.0236227
190	0xbda8fa9a	-0.082509235
191	0x3d7dd137	0.0619671
192	0xbd92aaed	-0.07161508
193	0xbbc3cfee	-0.005975715
194	0x3d355478	0.04427001
195	0x3c942041	0.018081786
196	0xbd415199	-0.04719696
197	0xbce21438	-0.027597532
198	0x3d2eb8fe	0.04265689
199	0x3cd39c1c	0.025831275
200	0x3a61254f	0.0008588628
201	0xbcc6da96	-0.024274152
202	0x3c835acc	0.016034506
203	0xbd4b6a94	-0.049662188
204	0x3c6681c6	0.014069026
205	0xbdbbf6b1	-0.09177912
206	0x3d4b549a	0.04964123
207	0xbdb49eef	-0.08819377
208	0x3d66bb4f	0.056330975
209	0xbdc15cec	-0.094415516
210	0xbd7d4ed0	-0.06184274
211	0xbdbaa5e6	-0.09113674
212	0x3d3b19dc	0.04567896
213	0x3d951dcf	0.07281076
214	0x3b89c700	0.004204631
215	0xbd5fa1f0	-0.054597795
216	0xbd000504	-0.031254783
217	0x3d79ef2e	0.061019115
218	0x3d16413f	0.036683317
219	0x3d5104ef	0.051030096
220	0x3cdccd18	0.026953265
221	0x3d18ecee	0.03733533
222	0x3a531500	0.00080521405
223	0x3cc69bee	0.024244275
224	0x3da26beb	0.0793074
225	0xbb8da448	-0.0043225624
226	0x3d6161aa	0.05502478
227	0xbd1cabb4	-0.038249686
228	0xbda7ef94	-0.08199993
229	0xbd64e670	-0.055883825
230	0x3d1a0cea	0.037609972
231	0xbb81c0b2	-0.0039597386
232	0x3d5c5f2e	0.053801708
233	0x3c8c83ef	0.017152755
234	0x3d9f8820	0.07789636
235	0x3d9629bd	0.0733218
236	0xbcde4d88	-0.02713658
237	0xbd484f84	-0.048903957
238	0x3c00b108	0.007854708
239	0x3d76b0e3	0.060227286
240	0xbd3fbf30	-0.04681319
241	0xbcafa048	-0.021438733
242	0xbd592920	-0.053017735
243	0xbd8b3e00	-0.06798935
244	0x3d9dc136	0.07702868
245	0x3cb6c674	0.022311427
246	0x3af8bd50	0.0018977318
247	0x3ce709de	0.028202947
248	0x3d78a736	0.06070634
249	0x3d0a4f67	0.03376713
250	0xbd55e78b	-0.05222277
251	0x3b7a68e0	0.0038209483
252	0xbd66e188	-0.056367427
253	0x3bfdc0d0	0.0077439323
254	0x3d8f65ee	0.070018634
255	0xbd57960b	-0.052633327

fc2.bias f4 [128]
0	0x3db8f241	0.09030581
1	0xbc8bbb41	-0.017057063
2	0x3dbcc9e9	0.09218199
3	0xbd5cb7d2	-0.053886242
4	0x3d83e9b5	0.064410605
5	0xbc829e65	-0.015944669
6	0x3cb53c44	0.022123463
7	0xbd13e062	-0.03610266
8	0x3dd5316b	0.10409816
9	0xbccc7b38	-0.024961099
10	0xbd9c8777	-0.07643025
11	0xbc56a0df	-0.013099878
12	0xbd049471	-0.032368127
13	0x3d9c0201	0.0761757
14	0x3dc6d11c	0.09707853
15	0x3d440a16	0.04786118
16	0xbcb36987	-0.021900905
17	0xb9d9d800	-0.00041550398
18	0x3c6c46ed	0.014421207
19	0xbd87ada7	-0.066249184
20	0xbbcb583b	-0.0062055863
21	0x3db49e50	0.08819258
22	0x3cb603ea	0.022218663
23	0xbd84aa01	-0.06477738
24	0xbdc11d43	-0.09429409
25	0x3cff0e0e	0.031134631
26	0xbce6baf4	-0.028165318
27	0xbd408df3	-0.047010373
28	0xbd0e886f	-0.034798082
29	0x3d6aa2a7	0.057284024
30	0x3d9bb6f1	0.07603253
31	0xbd24dc87	-0.040249374
32	0x3d7e493b	0.062081557
33	0x3dbcf75a	0.09226866
34	0x3c22bb4f	0.009932353
35	0x3cc348bb	0.023838392
36	0xbc7aa4d7	-0.01529809
37	0x3dbe32a2	0.09287001
38	0xbd4f00b3	-0.050537776
39	0xbd38da1a	-0.045129873
40	0xbd9cd05a	-0.076569274
41	0xbd019333	-0.03163452
42	0x3ca22cae	0.019796696
43	0xbc233641	-0.009961666
44	0xbd0852ee	-0.033282213
45	0x3da36538	0.0797829
46	0x3c754807	0.014970786
47	0x3d23ec62	0.040020354
48	0x3c9fedce	0.019522574
49	0x3c0017c7	0.007818169
50	0x3d8a0eaf	0.06741082
51	0xbc921ea4	-0.017836876
52	0xbbdcb070	-0.0067349
53	0xbd2953b5	-0.041339595
54	0xbce1a6ba	-0.027545322
55	0xbbb7d1f8	-0.005609747
56	0x3d1199bc	0.035547003
57	0xbd2026b7	-0.03909942
58	0x3d14e4aa	0.036350884
59	0x3d882eb0	0.0664953
60	0xbd212913	-0.039345812
61	0xbd51ccb6	-0.05122062
62	0x3dae6f7d	0.085173585
63	0x3d5332a2	0.05156196
64	0xbd4bd7d6	-0.049766384
65	0x3c771c38	0.0150824115
66	0xba894617	-0.0010473159
67	0xbd47497a	-0.048654057
68	0x3aa92b28	0.0012906538
69	0xbc929ea5	-0.017897913
70	0x3da54a45	0.080708064
71	0x3db99e06	0.09063344
72	0xbc4d5780	-0.012533069
73	0x3cbb96d4	0.022899069
74	0x3c210c5b	0.009829606
75	0x3d8e40bc	0.06945941
76	0x3d142d18	0.036175817
77	0xbb361960	-0.002778612
78	0x3da6e08b	0.08148297
79	0xbd56fb50	-0.052485764
80	0x3d123aed	0.035700727
81	0xbd7d81f6	-0.06189152
82	0xbd41712c	-0.04722707
83	0x3cca0270	0.024659365
84	0x3d82624c	0.06366405
85	0x3d693b22	0.05694116
86	0xbd7e5a4d	-0.062097836
87	0xbbce46de	-0.006295069
88	0xbcad7dfa	-0.021178234
89	0x3d14c525	0.036320824
90	0x3d558369	0.052127276
91	0x3cc9eebb	0.024649968
92	0xbd3b61a8	-0.04574743
93	0x3dc4ea5f	0.09615015
94	0x3d4438b8	0.047905654
95	0x3d36aa23	0.04459585
96	0x3cf0618d	0.02934339
97	0xba1f5946	-0.00060786714
98	0x3d912c8d	0.070885755
99	0x3d8bff2f	0.06835782
100	0x3da4b04b	0.08041438
101	0x3c045525	0.008076941
102	0x3db29841	0.087204464
103	0x3dbdab63	0.09261205
104	0xbceda7fd	-0.029010767
105	0xbcfbefea	-0.030754048
106	0xbd439d1c	-0.047757253
107	0x3dc58ee2	0.09646393
108	0xbca29904	-0.019848354
109	0x3c9bb0fa	0.019005287
110	0xbd27834c	-0.0408967
111	0x3dab3ed6	0.083615944
112	0x3a094755	0.00052367646
113	0xbd7b294d	-0.061318684
114	0xb8857fc6	-6.365734e-05
115	0x3d1d7fec	0.038452074
116	0xbd4392e6	-0.047747515
117	0x3ceb98b3	0.028759336
118	0xbd9e7646	-0.077374026
119	0x3d4739a0	0.04863894
120	0xbd6802b1	-0.05664319
121	0x3c8fa988	0.017536893
122	0xbcdf2c15	-0.0272427
123	0x3dafa054	0.08575502
124	0xbdb29d33	-0.087213896
125	0xbd0cebd8	-0.034404606
126	0xbd34412a	-0.044007458
127	0xbdacab9b	-0.08431169

fc3.weight f4 [2, 128]
0	0x3db5dad7	0.08879631
1	0xbd5649bf	-0.052316424
2	0x3cdfe5c0	0.027331233
3	0xbb8a0700	-0.0042122602
4	0x3db632eb	0.088964306
5	0xbe078198	-0.1323303
6	0x3dbe237b	0.09284111
7	0xbd6b5ae3	-0.057459723
8	0x3ca32e85	0.019919643
9	0xbd8b9699	-0.068158336
10	0x3d16d77e	0.036826603
11	0x3cf78703	0.030215746
12	0xbcdf99d2	-0.027295027
13	0xbd4d289b	-0.050087553
14	0x3de5d6b1	0.1122259
15	0x3c551145	0.013004606
16	0x3d39540b	0.045246165
17	0x3d678cca	0.05653075
18	0x3d830408	0.06397253
19	0x3d87670f	0.06611454
20	0x3dc74f15	0.097318806
21	0x3dc0b594	0.09409633
22	0x3dca2721	0.098707445
23	0x3d250736	0.04029008
24	0xbd6f8102	-0.05847264
25	0x3d835264	0.06412199
26	0x3dc4f4f0	0.096170306
27	0x3d37da8e	0.044886164
28	0xbd134a0a	-0.03595928
29	0xbd117e54	-0.035520867
30	0x3de71be7	0.11284619
31	0xbd33c7fd	-0.043891896
32	0xbd7c2e1f	-0.061567422
33	0x3d78c084	0.060730472
34	0xbd26a3ce	-0.04068356
35	0xbd35eaee	-0.0444135
36	0x3cb68252	0.022278938
37	0x3ccea973	0.025227284
38	0x3d66b76c	0.05632727
39	0x3dc197e6	0.094528005
40	0x3d323e24	0.043516293
41	0x3db10517	0.08643549
42	0x3d042d49	0.03226975
43	0xbd4c3f2d	-0.049864937
44	0x3d67fe24	0.05663885
45	0x3d2f1834	0.04274769
46	0xbc4216fc	-0.0118463
47	0x3c5c42e8	0.013443686
48	0x3cd838fa	0.026394356
49	0xbc8fcb81	-0.017553093
50	0x3d7f77cb	0.062370103
51	0xbd0ff68c	-0.035147235
52	0x3cf1ae50	0.029502064
53	0xbd48eaf2	-0.049052186
54	0x3da2ec8b	0.07955273
55	0xbd5c0732	-0.0537178
56	0xbd229e59	-0.039701793
57	0xbb8dea43	-0.0043309047
58	0xbd42654b	-0.04745988
59	0x3da7fb26	0.082022
60	0xbd1e10f9	-0.038590405
61	0xbc92ce5f	-0.017920671
62	0x3d1da655	0.038488705
63	0xbd902652	-0.07038559
64	0xbb7275d0	-0.0036996491
65	0x3da293fb	0.07938381
66	0x3d6ce8b6	0.057839118
67	0xbcb26e8c	-0.021781228
68	0x3d96d08a	0.073639944
69	0xbc50b4d4	-0.012738425
70	0x3c303b82	0.010756375
71	0x3da3908d	0.07986555
72	0xbd88cb9b	-0.0667946
73	0xbda1849f	-0.078866236
74	0x3da5954a	0.08085115
75	0x3daa0ffa	0.083038285
76	0xbcd57aeb	-0.026059588
77	0x3d087378	0.033313245
78	0x3daea2f5	0.08527175
79	0xbd9e7c98	-0.07738608
80	0x3d9987d3	0.074966095
81	0x3d0e3348	0.034716874
82	0x3d71a850	0.058998406
83	0xbc986418	-0.018602416
84	0x3d92596b	0.071459614
85	0x3cd52102	0.026016716
86	0xbd00c6e7	-0.031439688
87	0xbd441335	-0.04786988
88	0x3ce34785	0.027744064
89	0xbcdc6ec4	-0.026908286
90	0x3d2b9a8f	0.041895445
91	0x3d0ea616	0.03482636
92	0xbd6caef6	-0.057784043
93	0xbce1c9b8	-0.027562007
94	0xbd20e8f5	-0.039284665
95	0x3dd84a00	0.105609894
96	0x3bfa7d77	0.007644351
97	0xbd577d71	-0.052609865
98	0xbd689da7	-0.056790974
99	0x3db2db19	0.08733196
100	0xbabecf95	-0.0014557714
101	0xb8ea1701	-0.00011162274
102	0xbd8b317e	-0.06796549
103	0x3dae6400	0.08515167
104	0x3c0661ea	0.0082020555
105	0x3c866134	0.016403772
106	0x3d0ba542	0.03409315
107	0x3d671f56	0.05642637
108	0xbda977c6	-0.08274798
109	0x3dd5ec3f	0.10445451
110	0xbd2c6e6f	-0.042097505
111	0x3d60ed91	0.05491406
112	0xbad9a642	-0.0016605335
113	0x3ce14ff0	0.027503937
114	0x3d4c1854	0.04982789
115	0x3d4f009f	0.0505377
116	0xbc3063fd	-0.010766027
117	0x3b4eb4a8	0.0031540785
118	0xbd1d30a4	-0.038376465
119	0x3db58c0f	0.08864605
120	0xbd957dc4	-0.072993785
121	0x3d3bb97a	0.04583118
122	0xbcd83332	-0.0263916
123	0x3dd1bf8b	0.10241612
124	0xbda69a30	-0.08134878
125	0x3d302a2c	0.04300897
126	0xbd4b91df	-0.04969966
127	0xbd1d97e6	-0.03847494
128	0xbcdf3b51	-0.027249964
129	0xbd7da0f9	-0.061921094
130	0x3d586f2f	0.052840408
131	0x3c1ba510	0.009499803
132	0x3d86b6f0	0.06577861
133	0xbd9f7d4d	-0.07787571
134	0x3c1aae57	0.00944098
135	0xbd81749a	-0.06321068
136	0x3d699b53	0.057032894
137	0x3c4c5b5d	0.012472955
138	0xbd26f8b9	-0.040764544
139	0x3d08deff	0.03341579
140	0xbda46473	-0.08026972
141	0x3dcc0ccf	0.099633805
142	0xbc240ffa	-0.010013575
143	0x3da67e7a	0.08129592
144	0xbd6ad4a8	-0.05733171
145	0xbd9810bc	-0.07425067
146	0x3cbf9cc7	0.023390187
147	0x3cc68d62	0.024237338
148	0x3d94d7cf	0.07267725
149	0x3d25245d	0.04031788
150	0x3ddf8862	0.10914685
151	0x3cc6c18a	0.024262208
152	0xbbc58b08	-0.0060285367
153	0x3d75c826	0.06000533
154	0xbd83da73	-0.0643815
155	0x3cc1fd04	0.023680218
156	0x3c665be5	0.014059995
157	0xbd6d28b2	-0.05790014
158	0x3da0d8e1	0.07853866
159	0xbc9a69a0	-0.018849194
160	0x3bb77c6e	0.00559955
161	0x3caa05ac	0.020754658
162	0x3ab15f3c	0.001353241
163	0x3cb940c3	0.022613889
164	0x3dd56e5e	0.104214415
165	0x3ce2fa75	0.027707318
166	0x3cfd8637	0.030947788
167	0xbc5287c4	-0.012849752
168	0xbb768f0a	-0.003762188
169	0x3d4e2c16	0.050335012
170	0x3d9a1f1f	0.07525467
171	0x3dc86996	0.09785764
172	0x3d380b95	0.04493292
173	0x3d0076a5	0.03136315
174	0xbcc6c694	-0.024264611
175	0xbd6f1872	-0.058372922
176	0x3d86bf15	0.06579415
177	0x3d021bda	0.031764843
178	0xbcc94890	-0.024570733
179	0x3d7fd597	0.062459555
180	0x3cbdc3a0	0.02316457
181	0x3d5397c1	0.051658396
182	0x3ced14d3	0.028940594
183	0x3d19a7e7	0.03751364
184	0xbd2d123e	-0.042253725
185	0xbd84a2c6	-0.06476359
186	0xbcb1f3fa	-0.021722782
187	0x3d8ad86c	0.067795604
188	0xbc9bf02b	-0.01903542
189	0x3d9d692e	0.07686077
190	0x3d89df5a	0.06732054
191	0xbd60bd4d	-0.05486803
192	0xbd675334	-0.056475833
193	0x3d6d040d	0.05786519
194	0x3c83af45	0.016074786
195	0x3c2ff156	0.010738691
196	0x3b8a0f83	0.004213275
197	0x3d7c1016	0.06153878
198	0xbce14954	-0.027500786
199	0x3d689582	0.056783207
200	0x3d4dfc62	0.05028952
201	0x3d43a7c4	0.047767416
202	0xbc08e72f	-0.0083559
203	0x3d6feead	0.05857723
204	0x3cedc0b3	0.02902255
205	0xbd8d0406	-0.06885533
206	0x3dbf102a	0.09329255
207	0xbdb1f1ab	-0.08688673
208	0x3d8a360a	0.067485884
209	0xbd1eaaaa	-0.038736977
210	0x3d9acfbf	0.07559156
211	0x3d946fbb	0.072478734
212	0x3dc4127b	0.09573837
213	0xbd0fe93c	-0.03513454
214	0xbcd4c6ed	-0.025973761
215	0x3cca76a1	0.02471477
216	0x3b35db63	0.0027749173
217	0xbdb21a67	-0.08696442
218	0xbcfbe300	-0.03074789
219	0xbd77fb55	-0.060542423
220	0xbce04258	-0.027375385
221	0x3dd3769c	0.10325357
222	0x3dcff29d	0.10153697
223	0x3dc7bb6e	0.09752546
224	0x3d0b88bb	0.034065943
225	0xbe07071e	-0.13186309
226	0xbca5c3c4	-0.02023495
227	0x3d9a9775	0.075484194
228	0x3d460893	0.04834802
229	0x3d9099dc	0.07060596
230	0x3c12c738	0.00895863
231	0x3d29450f	0.041325625
232	0xbda6a81b	-0.08137532
233	0xbc5ecb28	-0.013598241
234	0x3d11b76c	0.035575315
235	0x3d5bb4ba	0.05363915
236	0x3c897690	0.016780168
237	0xbc06a80a	-0.008218775
238	0x3d40c863	0.047066104
239	0x3d447e7d	0.04797219
240	0x3d47d11d	0.04878341
241	0x3d5a50b0	0.053299606
242	0x3cc4eb8d	0.0240381
243	0x3dc01597	0.09379118
244	0x3c0bd228	0.008533992
245	0xbda4fa4d	-0.080555536
246	0x3d50fb5a	0.051020958
247	0x3dba1946	0.09086852
248	0x3c0b8df2	0.008517729
249	0x3da95209	0.082676
250	0xbd39508f	-0.045242842
251	0x3dd10e72	0.10207833
252	0xbca46c46	-0.02007116
253	0xbd5cd650	-0.05391532
254	0xbbd580a0	-0.0065155774
255	0xbd5adee8	-0.053435236

fc3.bias f4 [2]
0	0xbd153383	-0.03642608
1	0xbb89b31f	-0.004202261
