model/dqn_cartpole_400.pth (torch, 72769 bytes, 6 tensors)

fc1.weight f4 [128, 4]
00000000: e425 6b3e 8f81 91be 4f27 673f 55b4 a93c
00000010: 251b ad3e 408f 3bbd 8450 2bbf a895 9b3e
00000020: 6007 273c 6746 4cbe 6ff6 203e c072 033e
00000030: 9095 dabd 46b8 b53e 46e7 6e3f 8191 e43e
00000040: 3916 5c3d 552a 003c 7dad d7be fddc a53e
00000050: c40b e43e cfb2 bfbe f6ab edbe 22f6 afbe
00000060: 3d6b d23e 8f22 b7bd 4183 2bbf cf9d cabe
00000070: 14bd 113e 3538 32be c0ac 8e3f 0375 e43d
00000080: 8b2a 6dbe 284c 16be 4e25 593e bfb8 013e
00000090: 5ef1 003f 60c7 e13c 4eb6 53be 2d80 ce3e
000000a0: 457d 73be e67b d03e eb51 a8be 0d3d aebe
000000b0: d614 103b d1d0 a13e b103 9c3e e34c 983d
000000c0: d8cb ba3d e802 1d3d b248 33be 6744 babe
000000d0: 09ed bcbe aab9 c4be cb90 51be 65a9 823d
000000e0: e4a8 a9bd 12d9 d0be 61fc 49bf 0e41 ef3d
000000f0: 29ba 0cbe 2853 5d3e 8cf4 3c3f 7d47 93be
00000100: c528 193e 9fe8 a2be 1d68 14be 2091 163e
00000110: a5bf ea3e f5dc d7be 5bb3 b1be f950 bebe
00000120: 7607 4fbe b5dd 78bd 0173 efbe 491d 9dbe
00000130: cac6 223e a56b 2dbc 8f73 5d3e 9e90 a43e
00000140: f3ef acbc b884 9bbe e0a7 1dbf 172b cf3e
00000150: ad6c 533e b82a 0bbf 9a98 cbbe 38d9 b5be
00000160: 5980 923e 3f56 d73e e259 e0be 3ef7 73be
00000170: 3931 083e 25a5 ea3e d899 373d 281d 4d3d
00000180: b91a 203e 9ba4 893d d634 a1be b930 83bd
00000190: 8d27 a23e d949 553e 766b 2f3f 9eef 70be
000001a0: 5529 cf3d 3e06 e1be 5e92 7bbd 804a f1bc
000001b0: bfe5 993e 3cf7 99be e61b 0ebf c1cd 29be
000001c0: e544 223e 204f d7be c00f 98bd 89f6 c4bd
000001d0: 8628 c33d 34ed c8bc c9d9 1fbf 5057 3b3e
000001e0: 18d1 9fbe 111a 02bd a1da 1cbe f06e 8c3e
000001f0: 7b68 87be f440 02bf 0a7e d0be a358 79be
00000200: e694 7cbe a7df bbbc 92d3 4abf 7405 17be
00000210: 16d3 bf3d a77a 33be 58cd 96be 1829 57be
00000220: cddc b83d 0dd3 89be ec66 0bbf 4214 cd3e
00000230: 27b1 c83e 6077 073e 8674 e4be eecf 9d3e
00000240: b6a4 a8be 2172 e4be 3c87 8a3c e47a 51bd
00000250: 0ad6 cbbe 0387 debe d1a7 dd3d 7031 99be
00000260: cf59 28be 3131 653d 27e6 00bf a9b5 acbe
00000270: 1b03 c4bc 8aae ddbd 1689 48bf 06e2 45be
00000280: e1a4 523d 27dd e93e 0f31 f53d acce e1bd
00000290: 16ac d0be f6fc a4bc d566 913e db2c 0d3e
000002a0: ae4b 1f3e 1e0c f1bd cb94 cabe 0bed 2b3e
000002b0: 7508 aebd 92a3 83bd 0bec 76be 2c80 00be
000002c0: 4108 1f3e b5be a0be 3ad8 e1be 1a03 29bd
000002d0: b15a ca3e ee3e efbd 6327 b7be 3776 1b3e
000002e0: dba2 bdbd 2a9e 0e3e 2d7e 03be 387a 7cbe
000002f0: c48e 10bf 8b1d 84be 061c b73e 7516 bf3e
00000300: a56b c9bd 8391 a23b 9631 0c3f d445 863e
00000310: adf3 4f3e bf47 03be 555d 96bf e142 a0be
00000320: 0c3a d63e dbe2 96be 4919 51be a580 70be
00000330: 9334 e5be f31a acbe 70e5 023f 9764 503d
00000340: f34e a43e b153 d9bd 4a23 46be 1e8f c6be
00000350: e4a5 95bd e03f fd3e e97e f63e 6779 4dbd
00000360: 33c6 d4bd 93bf b3be f5b8 eebe 4522 d0bd
00000370: fe05 c13e 3106 0bbf 1a4b 8bbf f7d2 90be
00000380: 2f5d 25be 1843 84be 6f2a 9c3e 4080 643c
00000390: 5277 d6be 8679 ce3e b537 753e cfbb b8be
000003a0: b0d9 d13e 3c42 87be ce17 e2be 183d 28be
000003b0: 4abf e1bc 67fd a23e 7ad1 61be a5a1 dfbc
000003c0: c222 13bf b668 1c3e b65b 603f 289c 293e
000003d0: 24c9 803e 435d 53bd f07e 9cbe ca17 cbbd
000003e0: 2ee1 e83e 9cb8 683e df21 f33e e4bc f13e
000003f0: 50ca b1be 420d be3d 8e0a e33e 9124 36bd
0.22963673 -0.28419158 0.90294355 0.020715872 0.33809772 -0.04579091 -0.6691973 0.30387616
0.010194629 -0.19948731 0.15719007 0.12836742 -0.10673058 0.35492152 0.93321645 0.4464226
0.05373213 0.007822593 -0.4212455 0.32395163 0.44540226 -0.37441108 -0.46420258 -0.34367472
0.4109744 -0.089421384 -0.6699715 -0.39573523 0.14232284 -0.17404254 1.1146469 0.11155131
-0.2316076 -0.14677489 0.21205637 0.12668131 0.503683 0.02756089 -0.20675012 0.40332165
-0.23778255 0.40719527 -0.32874998 -0.34030953 0.0021985075 0.31604627 0.30471566 0.0743654
0.09120911 0.03833285 -0.175082 -0.36380312 -0.36899593 -0.384229 -0.2046539 0.06379966
-0.082841665 -0.40790612 -0.78900725 0.1168233 -0.1374289 0.21613753 0.7381065 -0.2876548
0.14956959 -0.318181 -0.14492841 0.14703798 0.45849338 -0.42160764 -0.3470715 -0.37171152
-0.2021769 -0.06075831 -0.4676743 -0.30686405 0.15896145 -0.0105847465 0.21626113 0.32141584
-0.02111051 -0.30374694 -0.6158428 0.40462562 0.20646925 -0.5436206 -0.39764863 -0.35517287
0.28613546 0.42057988 -0.43818575 -0.23824784 0.13300027 0.4582912 0.04482445 0.050076634
0.15635194 0.06720849 -0.31485623 -0.064057775 0.316708 0.20828952 0.6852335 -0.23528907
0.10115305 -0.43950075 -0.061418884 -0.02945447 0.30058095 -0.30071437 -0.5551132 -0.16582395
0.15846594 -0.42052555 -0.07424879 -0.09617335 0.095292136 -0.02452717 -0.6244169 0.18295026
-0.31214213 -0.03176314 -0.15317775 0.2742839 -0.264469 -0.5088036 -0.4072116 -0.24350218
-0.24666175 -0.022933794 -0.7922908 -0.14748174 0.09366433 -0.17527257 -0.2945354 -0.2101177
0.090264894 -0.2691883 -0.5445392 0.40054518 0.39197657 0.13229132 -0.4462015 0.308227
-0.32938164 -0.44618323 0.016910188 -0.05114259 -0.39811736 -0.4346238 0.10823024 -0.2992053
-0.1644051 0.055955116 -0.50351185 -0.33732346 -0.023927262 -0.10824306 -0.78334177 -0.19324502
0.051426772 0.45676538 0.11972248 -0.11025748 -0.4075629 -0.020140152 0.28398767 0.13786642
0.15556213 -0.11769889 -0.39566645 0.16789643 -0.08497707 -0.06427683 -0.24113481 -0.12548894
0.15530492 -0.31395498 -0.4411028 -0.041262724 0.39522317 -0.11681925 -0.35772237 0.15181814
-0.09259578 0.13927522 -0.12841101 -0.24655998 -0.56467843 -0.2580379 0.35763568 0.3732182
-0.09834985 0.004961194 0.5476316 0.2622515 0.20307799 -0.12820338 -1.1747233 -0.31301025
0.4184116 -0.29469952 -0.20419802 -0.23486574 -0.44766673 -0.3361431 0.51131344 0.05087718
0.32091483 -0.10611666 -0.19349399 -0.38781065 -0.07307032 0.49462795 0.481437 -0.050164606
-0.10389366 -0.35107097 -0.46625486 -0.101627864 0.37699884 -0.5430632 -1.0882294 -0.28285953
-0.16148828 -0.25832438 0.30501124 0.013946593 -0.4188791 0.4032709 0.23947032 -0.36080787
0.40986395 -0.2641772 -0.44158787 -0.16429555 -0.027557034 0.31833956 -0.22052565 -0.027298758
-0.5747491 0.15274319 0.8763994 0.16563475 0.25153458 -0.051602613 -0.30565596 -0.09916647
0.45484298 0.22726673 0.4748678 0.47214425 -0.34724665 0.092798725 0.4434399 -0.044468466

fc1.bias f4 [128]
00000000: e29c e8bd cb9c 5ebe 594b 9b3e 5592 b0be
00000010: e649 e13e bea3 3ebe 9176 d6be 125a 6ebe
00000020: 6afd 993e 5b04 b93e 72a7 babe 0f27 c43e
00000030: ed0f d4be 5730 ddbd efcc 153e 0836 23be
00000040: c1cf f83e ed47 203d 3023 67bd 4faa 18be
00000050: 0228 5a3e ef41 833e d96a 2bbe 82b2 c7be
00000060: b09b db3e 130f ba3e ebe8 a13d d69e 713e
00000070: 7528 b83e 4da6 b43c 7d94 e53e c093 3f3e
00000080: b8bc 24be e954 a03e 20d0 bb3e ffad 913d
00000090: 1ec3 1a3c f093 d53e 4258 65be bc05 0ebe
000000a0: 2793 433d bd8b 9d3e e7c4 2abe a77d a93e
000000b0: fb9c 6cbd a1fa f83e 64aa f63e d82a 1c3c
000000c0: f8e2 853d 25d2 c9be a979 a23e d666 23bd
000000d0: 5355 5dbe 7b25 7c3e 82d3 09be 681e 883c
000000e0: 87a3 013f 1b6f 833e 6696 d4be 7064 f73d
000000f0: 83a1 5ebe 3474 c8be 25e9 bcbb f4bb b43e
00000100: 117d aabe 840b 823d bdf0 943d 35c2 96be
00000110: 70aa 2bbe 2ad9 d63e f5cc 07bf f0d5 60be
00000120: 1b97 043f 8b18 d03e ed79 f73e 8c34 39be
00000130: 6be2 fa3d fba1 9c3e ebea d5be 963d b93d
00000140: 4946 e33e 7737 5f3d adaa de3e 7307 0dbd
00000150: 4ef9 2d3e ea18 c9bd 6d9c b9be e9e3 e93d
00000160: 862a e03e 2b98 8c3e 70f3 953e ecff 243d
00000170: 2c5f 97be be97 8abd 1bce 17bf cc55 f73e
00000180: d2b6 efbe 3fbf b63d 7043 bd3e e404 e73e
00000190: 4cda e83d b603 babc ebe8 46be 1ada f33e
000001a0: 30a4 7e3e 1c2a 003f 6133 053e 7446 a4be
000001b0: cbe4 a23e ffc5 8fbe c004 02bf d2c5 a73e
000001c0: 0620 6abe d530 a83e 7974 d93e 9aa3 2d3e
000001d0: 4398 cc3d 5f66 ad3c 7ac2 183e ea8d c33e
000001e0: d087 acbe d4b3 443e afe9 0c3e 977f 88bb
000001f0: 7ece 7fbe 78b5 bfbe 1846 cdbd 33b6 afbe
-0.11358048 -0.217395 0.30330923 -0.34486642 0.44001693 -0.1861715 -0.41887334 -0.23276547
0.30076152 0.36136135 -0.36455876 0.3831105 -0.414184 -0.10800236 0.14628957 -0.1593858
0.48596004 0.039131094 -0.05643004 -0.14908718 0.21304324 0.2563624 -0.16739978 -0.39003378
0.42892218 0.36339626 0.07905754 0.23595747 0.35968366 0.022051955 0.4483985 0.18708706
-0.16087615 0.3131478 0.36682224 0.07113265 0.009445934 0.4171443 -0.22396949 -0.13869375
0.047747757 0.30770674 -0.16676675 0.33103678 -0.057766896 0.48628715 0.48176873 0.009531699
0.065374315 -0.3941814 0.31733444 -0.039892994 -0.2161458 0.24623673 -0.1345959 0.016616061
0.5064015 0.25670704 -0.41520995 0.12079704 -0.217413 -0.39151156 -0.0057650977 0.35299647
-0.33298543 0.06349853 0.0727248 -0.29445043 -0.16764235 0.41962558 -0.53047115 -0.2195661
0.5179307 0.40643725 0.4833521 -0.18086451 0.12250217 0.3059233 -0.4178079 0.0904495
0.4438956 0.054496255 0.4348959 -0.034430932 0.16989633 -0.09819205 -0.36252156 0.114204235
0.43782443 0.27459845 0.2928729 0.04028313 -0.29564798 -0.06767224 -0.59298867 0.48307645
-0.46819168 0.08923196 0.36965513 0.4512092 0.11369762 -0.022706848 -0.19424789 0.47627336
0.2486732 0.50064254 0.13007881 -0.32085 0.3181518 -0.28080747 -0.507885 0.32768112
-0.22863778 0.32849756 0.42471674 0.1695694 0.09989979 0.021166978 0.14917937 0.3819421
-0.33697367 0.19209224 0.13761018 -0.0041656005 -0.24981114 -0.37443137 -0.10023135 -0.34318694

fc2.weight f4 [128, 128]
00000000: 4759 c0bd 8097 843c 314c f93c 388e 1cbe
00000010: bfa5 d63c aad5 2cbe b14a acbd 86b7 2bbd
00000020: c227 5cbc ed49 ee3c d22f acbc 7883 5d3d
00000030: 3a22 31bc 03a7 20bc 6a4c aa3d 6f79 c2bc
00000040: 898f a73c 36df f43c 9820 e5bc 10b1 1fbd
00000050: 895e 6bbd 98f3 363d d361 f0bb cc7d 30bc
00000060: 3cc0 713d cb0a 22bd c949 8c3c 4ae7 9d3d
00000070: f770 8abc f8f8 ae3c b85b 7fbd e4e3 ed3d
00000080: 95f6 af3b c57f da3d cad6 63bd 0fdd c63d
00000090: e043 783d 487a 3ebd 1467 243d 59be 403d
000000a0: f97c 54bd f7fb c83b 28aa 543d cf10 fb3d
000000b0: e0ac e53d f67c 813d 853c 1d3d a6d3 903d
000000c0: 0f37 883c 3020 abbe c135 2fbb c27f 37bd
000000d0: 63fc 62bd 9b0f ac3d e918 c5bd 5e35 3a3b
000000e0: ce72 423c ef2e 043d d5b2 90bd b92d 53bc
000000f0: de05 7dbe 9c0d 753d 2a09 3dba 80a2 66bd
00000100: d85e 193d 4d74 8c3c 08d1 043c 3887 1cbd
00000110: e7d7 803d 1e7f f63b 3171 493d a419 85bd
00000120: 46ba bdbc 9980 6f3c c1a6 143c 8066 a8bd
00000130: 056c e83d d76d cd3d c876 c93c 8074 7ebd
00000140: be7b a6ba 4495 16be 22ab c93d 418e 503d
00000150: f847 58bd 5c73 abbc 8931 9abd d1ba aa3d
00000160: e17a 963d fb50 0e3e a506 293d 0ccd 803d
00000170: 0e93 9abd e5d3 733c bd9b 0fbd ec20 5cbd
00000180: 4ece 393d b550 09bc ecd1 423c e9a4 aa3d
00000190: 7839 09bd ceb4 aa3d f41e fbbd 54e4 813d
000001a0: 42b5 9e3d 7978 db3d 8cb2 14bd 039b aa3e
000001b0: 1316 243d 4915 56be ffaf 2fbe 4500 2d3c
000001c0: 22a5 d13c ad34 833d c521 253d 93df 9bbb
000001d0: 2280 403d b360 47be 5351 35be 287c b1bb
000001e0: 6960 f0bc 92d1 ae3c 2a76 e03c 2c8e c03d
000001f0: 8c33 273c afc8 6abd d37c 5fbb 88de 2f3a
00000200: cd4f 95bd eedc 393d 767f cdbc d561 89bd
00000210: 1883 43ba e9f7 4bbd aa47 86bd 3a21 4f3d
00000220: 7d94 d73b 7227 6a3d 92ff 90bd cfae a33d
00000230: 5d1e 01bd f49c 603d 77de 213d 97f9 4f3c
00000240: 295b 923d e263 85bd c017 a23d 3dab 87bd
00000250: 1929 a13d dd42 c8bb c942 9c3d 8f68 a8bd
00000260: 1a37 bcbd d908 aabd 6b50 4f3b f8e0 a9bd
00000270: ec10 debc 02f5 5b3d 0938 56bd b36f eebb
00000280: 4733 0bbd bde1 48bd 0be6 32bd 9e41 aebd
00000290: 1e31 113c 8f99 4c3d df08 40bd f3d5 67bd
000002a0: 0d90 17bb 883f 8dbc 2780 b23d ab87 963d
000002b0: f2a6 463d 8881 b4bc 016d 11bd f0cc 6cbb
000002c0: d0a5 b8bd 30f6 4e3c 89ed c0bc 8e90 c8bd
000002d0: cff7 d23c db1f 82bd 182d 51bc be1d 07bd
000002e0: 3ac1 acbd ac5e 6dbb dadd 4a3d 320e 93bd
000002f0: 4e74 c5bc 6484 c13c 9afa a8bd 53f2 7b3d
00000300: beab 92bd a391 f0bb 061a 323d 4120 943c
00000310: 9951 41bd b682 e4bc feb8 2e3d 32a7 2c3c
00000320: 7e48 493a afdc cdbc 905c 803c d85a 85bd
00000330: c681 663c bce3 bcbd 9a54 4b3d 032d c2bd
00000340: d70a 653d ec5c c1bd c48f 7ebd 79b2 babd
00000350: 5ab9 393d cf1d 953d 00c7 893b 3c10 75bd
00000360: 0405 00bd be81 763d 3f41 163d ef04 513d
00000370: 18cd dc3c 2ce1 b23c 0015 533a 2013 c23c
00000380: eb6b a23d 7a6e 93bb 0fc8 5f3d b4ab 1cbd
00000390: 94ef a7bd 70e6 64bd 8d33 b53c d7db 84bb
000003a0: 263b 5c3d cc49 8a3c 2088 9f3d bd29 963d
000003b0: 884d debc 844f 48bd feb7 f8bb 4830 753d
000003c0: 30bf 3fbd 48a0 afbc 7cdb 59bd 53bb 91bd
000003d0: b999 9c3d d571 de3b 1734 f63a e06c e63c
000003e0: 36a7 783d 674f 0a3d 8be7 55bd e068 7a3b
000003f0: 88e1 66bd d0c0 fd3b 1dda 8c3d 0b96 57bd
-0.09392028 0.016185522 0.030431839 -0.15288627 0.02620208 -0.16878381 -0.08412684 -0.04192307
-0.013437213 0.029087985 -0.021018896 0.054080456 -0.010811383 -0.009805444 0.08315356 -0.023739545
0.020454185 0.029891592 -0.027969643 -0.03898722 -0.057463203 0.044665903 -0.0073358803 -0.01077218
0.05902122 -0.039561074 0.017125027 0.077101305 -0.016899569 0.021358952 -0.06234333 0.11615732
0.005369971 0.10668901 -0.05562476 0.09710132 0.060611606 -0.046503335 0.040137365 0.04705653
-0.051876996 0.006133552 0.051920086 0.12259065 0.11214614 0.063226625 0.038387794 0.07071619
0.016627816 -0.33422995 -0.002673492 -0.044799574 -0.055416476 0.08401414 -0.09623892 0.0028413157
0.011868192 0.032271322 -0.070653595 -0.012889319 -0.2470927 0.059827432 -0.00072111434 -0.056307316
0.037443966 0.0171453 0.008106478 -0.038214892 0.0629118 0.007522478 0.049180213 -0.06499031
-0.023160111 0.014618062 0.00907296 -0.08222675 0.11348728 0.10030716 0.024592772 -0.06212282
-0.0012701673 -0.14705378 0.09847094 0.050916914 -0.05280301 -0.020929031 -0.07528979 0.08336414
0.07347656 0.13898079 0.041266102 0.062891096 -0.0754758 0.014882063 -0.035060633 -0.053742334
0.045362763 -0.008381058 0.01189087 0.08332235 -0.033502072 0.08335267 -0.12261763 0.06342378
0.07749416 0.10716338 -0.036303088 0.3332139 0.040060114 -0.20906557 -0.17156981 0.010559146
0.025591437 0.064065315 0.04031541 -0.0047568767 0.046997197 -0.19470482 -0.17706804 -0.005416412
-0.029342847 0.021340165 0.027400095 0.09402117 0.010205161 -0.057320293 -0.00341015 0.000670888
-0.072906114 0.04537671 -0.025085192 -0.06708113 -0.0007458194 -0.049796972 -0.065566376 0.050568797
0.0065789805 0.057166524 -0.07079996 0.079923265 -0.031523097 0.054837182 0.0395188 0.012693784
0.07146294 -0.06513192 0.07914686 -0.06624458 0.07869167 -0.0061114863 0.07629926 -0.08223068
-0.09190197 -0.08302469 0.0031633626 -0.082948625 -0.027107678 0.053700455 -0.052299533 -0.007276499
-0.03398445 -0.049043406 -0.043676417 -0.08508609 0.008861808 0.049951132 -0.04688346 -0.056600522
-0.0023126632 -0.017242208 0.08715849 0.07350095 0.048499055 -0.022034422 -0.035504345 -0.0036132894
-0.09016001 0.012631938 -0.023550766 -0.097931966 0.02575293 -0.06353732 -0.012767099 -0.03298735
-0.084352925 -0.003621976 0.04952798 -0.07180442 -0.02410331 0.0236227 -0.082509235 0.061510395
-0.071616635 -0.00734158 0.04348185 0.018081786 -0.04719696 -0.02789436 0.04265689 0.010537909
0.00076783437 -0.025129644 0.015669137 -0.06511468 0.014069026 -0.092231244 0.04964123 -0.094812416
0.05591854 -0.094415516 -0.062148824 -0.09116072 0.04534278 0.07281076 0.004204631 -0.059829935
-0.031254783 0.060182326 0.036683317 0.051030096 0.026953265 0.021835886 0.00080521405 0.02369076
0.0793074 -0.004499254 0.05463415 -0.038249686 -0.08199993 -0.055883825 0.022119308 -0.0040545273
0.053767346 0.016880892 0.07789636 0.0733218 -0.02713658 -0.048903957 -0.007590293 0.059860498
-0.04681319 -0.021438733 -0.053187832 -0.071158074 0.07646508 0.006788472 0.0018783835 0.028128088
0.06070634 0.03376713 -0.05222277 0.0038209483 -0.056367427 0.0077439323 0.06877539 -0.052633327

fc2.bias f4 [128]
00000000: 67f4 c73d 851c 8ebc 3dc0 e13d d2b7 5cbd
00000010: 4d8b aa3d 7552 16bd 6bf1 273d eb49 72bd
00000020: 4f25 f83d 387b ccbc bf82 a2bd 27b1 2c3b
00000030: 7142 44bd bac6 ba3d e8f1 e43d 069a 853d
00000040: 071e b8bc 7eab 8bbc 36be 003d a1ee 49bd
00000050: 024e 393c 7ad5 d63d 5127 253d 453a 6cbd
00000060: 513a edbd 4b31 5d3d 30d9 72bc c835 64bd
00000070: bd4c 12bd a7a2 6a3d b4a6 bc3d ecbf 25bd
00000080: f191 773d 8472 de3d d7f1 f8ba 572b be3c
00000090: 51e8 243b 6ef0 e33d 8380 07bd 1af9 f5bc
000000a0: 9890 b1bd b686 78bc 5188 123d 949a 9c3b
000000b0: 327d 60bc e1cd cb3d fced 0a3d 62ec 233d
000000c0: 7af3 163d 2459 3e3d a790 983d 6bc0 af3a
000000d0: 70b0 dcbb 5c68 42bd ae85 bfbb 9be9 c3bb
000000e0: fa59 a43c 6df8 5bbd aae4 143d 00ff b03d
000000f0: 1329 21bd 0212 10bd 7d4c d53d ab96 3a3d
00000100: d6d7 4bbd 720d 0c3d 4e70 acbc ddb8 7cbd
00000110: 28fa 8f3c d430 27bb 454a a53d 6f62 e13d
00000120: 8057 4dbc 5920 063d 0584 d63c 3c34 b63d
00000130: 069a 8d3d 0ba6 88bc a9a3 ce3d 50fb 56bd
00000140: 5120 5f3d f681 7dbd c02a e0bc 7002 ca3c
00000150: b63e a73d 53d0 643d cf48 81bd 3066 02bc
00000160: 26f8 85ba e73b 133d 6983 553d 4c34 a43b
00000170: c425 43bd 2d11 e53d 4b53 813d 5fc8 873d
00000180: 4901 513d 5e6f 5bbc 0687 903d 3c99 ae3d
00000190: 8924 ca3d 5a1f da3c 4bec 953d 651b e23d
000001a0: fda7 edbc e732 4bbd f97d f3bc b4b6 ee3d
000001b0: 0707 07bd 4997 013d 4c83 27bd 51d5 d23d
000001c0: beeb ae3c 4d29 7bbd 13a7 903c ccf4 7a3d
000001d0: fd20 7abd 1f26 df3c ea5e bcbd a314 8c3d
000001e0: 21ab 6cbd 76b0 583b 1629 aebc 4e50 e03d
000001f0: 9f2d b9bd 51a1 01bd 6a85 68bd 9bab acbd
0.09763413 -0.017347584 0.11022995 -0.053886242 0.08327351 -0.03669973 0.04100172 -0.059152525
0.12116491 -0.024961099 -0.07935094 0.0026350708 -0.047914926 0.09119935 0.111789525 0.06523518
-0.022475256 -0.017049547 0.0314314 -0.04929984 0.011310102 0.10489936 0.0403207 -0.057672758
-0.115833886 0.054002088 -0.014822289 -0.055715352 -0.035717715 0.057284024 0.092114836 -0.040466234
0.060441915 0.10861686 -0.0018992972 0.023214025 0.0025162885 0.11129843 -0.033081543 -0.030026007
-0.08670157 -0.015168836 0.035774533 0.0047791693 -0.013701724 0.09951378 0.033918366 0.040020354
0.03685329 0.04647173 0.07449465 0.0013408785 -0.0067349 -0.047462806 -0.0058447933 -0.0059787757
0.020062435 -0.053703714 0.036350884 0.086423874 -0.039345812 -0.035173424 0.104149796 0.045553844
-0.049766384 0.03419251 -0.021049645 -0.061699737 0.017575338 -0.0025511282 0.080708064 0.11005103
-0.012533069 0.032745693 0.026185999 0.08896682 0.06914143 -0.016680738 0.100898094 -0.052485764
0.05447418 -0.06189152 -0.027364135 0.024659365 0.08166258 0.055862736 -0.06312715 -0.007958934
-0.0010221049 0.0359458 0.052127276 0.005011117 -0.047643438 0.11184917 0.06314715 0.06630015
0.051026616 -0.013393251 0.07057004 0.08525321 0.0987025 0.026626278 0.0732046 0.11040381
-0.029010767 -0.04960909 -0.029723154 0.116559416 -0.032965686 0.031638417 -0.0408967 0.10294593
0.021352645 -0.061318684 0.017657792 0.061268613 -0.061066616 0.027239857 -0.09197791 0.06839874
-0.05778039 0.0033064163 -0.021259826 0.10952817 -0.09041905 -0.031647984 -0.05676786 -0.08431169

fc3.weight f4 [2, 128]
00000000: e835 db3d bf49 56bd 57d5 e63d 0007 8abb
00000010: 883d 033e 1034 c2be fb38 303e 80fc 3ebb
00000020: e5e3 3b3d 9996 8bbd d878 163d 3c72 ce3d
00000030: 8491 57bc 2187 58bc 8757 403e c09d e03d
00000040: ff88 383d 7fb8 573d a740 d93d d02c 1c3e
00000050: a60e 2c3e 3b87 1a3e 85f2 343e 5a49 1b3e
00000060: e778 a4bd 2553 023e a957 1b3e e143 f13c
00000070: 3cc8 12bd 547e 11bd 268b 4d3e 21c6 33bd
00000080: bbd7 73bd 31d3 c43d 5301 fbbd eeea 35bd
00000090: 1578 a23d c2a4 c63d 3080 f53d bd89 313e
000000a0: b0a1 233d b84e 1b3e a655 cb3d 56ba c93a
000000b0: 5617 063e e36b b73d 32c3 953d e842 5c3c
000000c0: 89f2 e63d 4d2a 573d 695d ce3d 3b4d 2c3d
000000d0: 50ae f13c f2ea 48bd ab49 043e 8906 5cbd
000000e0: 1fc4 b8bd 43ea 8dbb 4b65 42bd c160 063e
000000f0: f910 1ebd 3357 a93c c7b8 063e deee 7ebe
00000100: d075 72bb e0dd e93d 47ba 683d 5481 edbe
00000110: 499c 1e3e b56f 973c 823b 303c e1d9 f63d
00000120: 9bcb 88bd 72e6 33be 4511 033e 87ee 093e
00000130: 1b8b 91bc c423 523d f38d 033e 987c 9ebd
00000140: efd4 e33d 4833 0e3d 6ed1 d83d 1864 98bc
00000150: 34ff df3d 0221 d53c 69c6 00bd 3513 44bd
00000160: 345b d33d 3d54 9fbe 8f9a 2b3d dec1 a6bb
00000170: 6ce9 48bd bd11 e93b 8093 df3c a871 1c3e
00000180: 8292 d13d d3e0 7bbe a79d 68bd bb85 133e
00000190: b206 5f3d 4e09 b53d 9d4c 4abd 3c11 f33d
000001a0: ea61 063c 80df a7bb 0781 833d ec61 153e
000001b0: c3d1 b6bd cda2 0e3e 6f6e 2cbd d622 cc3d
000001c0: 777d 053e f04f e13c c868 013e 70a3 013e
000001d0: fd63 30bc a8b4 4e3b 0ca8 60bd 5a9f 4a3e
000001e0: fb8c 8ebd 7197 113d 70db 16be 7715 1d3e
000001f0: 1b35 96bd 2360 18bc 9509 0dbd e697 1dbd
00000200: 9c43 edba 8e09 7bbd 8585 043e 10a5 1b3c
00000210: 8ba5 d93d 2218 1cbe 9aa8 863d 9f22 c4bd
00000220: 6d60 a93d 5d5b 4c3c cab5 01bd 8ec4 c93d
00000230: 7364 a4bd 2961 0a3e 122c 333d 8880 063e
00000240: a8d4 6abd a0b5 acbd 081c b83d 7fbe a63d
00000250: d6cd 093e 704e bd3d f51d 393e f1d1 2d3e
00000260: 077d 4dbd 0331 1d3e 85a3 833b 74fd 373c
00000270: e55b 663c b228 6dbd 16d0 2c3e a069 9abc
00000280: 0555 eb3b de2e 903d 2d43 e8bb c8b2 b63c
00000290: fca4 243e 5d0c e13d 9edb da3d c16d 863d
000002a0: 180a 82ba d48d ec3d 31bd ed3d 3504 f73d
000002b0: 8bad 013e 9287 de3d af7a 02be 7218 6fbd
000002c0: 180c 0a3e c66f 183e ece4 dabb 63b7 ee3d
000002d0: a0c3 bd3c 8bf2 4b3d 6ebd df3d e7a7 193d
000002e0: 78f4 bdbd 0019 4cbd faf3 b1bc b26d f03d
000002f0: 2bf0 9bbc 32a9 e03d 083e 223e 5b9b 18be
00000300: 3453 67bd 5574 0b3e d648 263c 9603 0abf
00000310: f688 693d 6c66 de3d 5449 e1bc 3cf4 dd3d
00000320: 62fc 4d3d a454 79bc 1bd7 6d3d e0e3 e13d
00000330: 32af b53d a3a4 58bd afa7 f83d abf1 b1bd
00000340: 9318 d73d aaaa 1ebd ba0d e43d bb6f 943d
00000350: 6934 1c3e 08c2 08bd ca99 d4bc c41c c83c
00000360: 1c52 b93d 5cca c1be 00e3 fbbc 2758 c6bd
00000370: 6b6b 5ab9 4c59 053e a441 1c3e 47b9 263e
00000380: 6298 113e 6c78 09bf d4a0 a5bc 61c1 f43d
00000390: e005 e73d a50d 273e 488c d03d 27e4 a13d
000003a0: 1ba8 a6bd c592 003c 83ad ac3d dd56 093e
000003b0: 3ad8 183b 98de a03c 63c8 403d 4688 c23d
000003c0: 97f0 243e b050 5a3d 5266 ea3d 66e3 4b3e
000003d0: 359d a2bb 9914 a3bd ac80 893c e2df 173e
000003e0: 1d5a 67bb d151 863d 9fac 8ebe effb 303e
000003f0: 3075 c7bb ed66 e4bd ea14 5c3a e8de 5abd
0.10703641 -0.052316424 0.1127116 -0.0042122602 0.12816441 -0.37930346 0.17209236 -0.00291422
0.045871634 -0.068158336 0.03673634 0.10080382 -0.013157252 -0.013215811 0.18783389 0.109675884
0.045052525 0.052666184 0.106080346 0.1525147 0.16802463 0.15090649 0.17670639 0.151647
-0.08030873 0.1272703 0.15170158 0.029451312 -0.03583549 -0.035520867 0.20072612 -0.043890122
-0.05953191 0.09610594 -0.12256112 -0.0444135 0.0793306 0.09699394 0.119873405 0.17337699
0.03994912 0.15166748 0.099284455 0.0015390615 0.1309484 0.08956125 0.07312621 0.013443686
0.11276729 0.052530576 0.1007641 0.04206584 0.029502064 -0.049052186 0.12918727 -0.05371717
-0.09021782 -0.0043309047 -0.04745988 0.13122846 -0.038590405 0.020671463 0.13156424 -0.24895808
-0.0036996491 0.114192724 0.056818273 -0.46387732 0.15489306 0.018485883 0.010756375 0.12053276
-0.0667946 -0.17568377 0.12799557 0.13469897 -0.017766526 0.05130364 0.12847118 -0.07738608
0.11124598 0.034716874 0.105868205 -0.018602416 0.10937348 0.026016716 -0.03143922 -0.04786988
0.1032013 -0.31118956 0.041895445 -0.0050890287 -0.049050733 0.0071127103 0.027292013 0.15277731
0.10233022 -0.24597482 -0.056790974 0.14406483 0.054449745 0.08839665 -0.04938947 0.118685216
0.0082020555 -0.005123079 0.064210944 0.14588135 -0.089267276 0.13929291 -0.042097505 0.09967582
0.13036142 0.027503937 0.12637627 0.12660003 -0.010766027 0.0031540785 -0.054847762 0.1978735
-0.06960484 0.035544816 -0.14732146 0.1534022 -0.07334348 -0.0093002645 -0.034432966 -0.03847494
-0.0018101814 -0.06128841 0.12941559 0.009499803 0.10627278 -0.15243581 0.06575127 -0.09576916
0.08270345 0.012472955 -0.03166751 0.09851943 -0.08026972 0.13513626 0.0437432 0.13134968
-0.05733171 -0.0843308 0.089897215 0.08141803 0.13457426 0.092434764 0.18077834 0.16974618
-0.050168063 0.15350728 0.004017296 0.0112298615 0.014059995 -0.05790014 0.16876253 -0.018849194
0.007181766 0.07040189 -0.007088086 0.022302046 0.16078562 0.10988686 0.1068642 0.06563903
-0.0009921221 0.11550489 0.11608351 0.12061349 0.12663858 0.10865702 -0.12742113 -0.058372922
0.13481176 0.14886388 -0.0066801216 0.11656072 0.02316457 0.049791854 0.10924803 0.03751364
-0.09275144 -0.04982853 -0.021722782 0.11739673 -0.01903542 0.109697714 0.15843976 -0.14903013
-0.056475833 0.13618596 0.010149201 -0.5391172 0.05701538 0.10859379 -0.027500786 0.108376
0.05028952 -0.015217934 0.05806647 0.11029792 0.088713065 -0.052891385 0.12141358 -0.08688673
0.10502734 -0.038736977 0.11135431 0.072478734 0.15254368 -0.033388168 -0.025952239 0.024427779
0.09048864 -0.378497 -0.03074789 -0.096847825 -0.00020830116 0.13022345 0.15259415 0.16281615
0.14218286 -0.53699374 -0.02021829 0.119509466 0.112804174 0.16313799 0.101830065 0.07904845
-0.08137532 0.007847493 0.08431532 0.13412042 0.002332224 0.019637391 0.047066104 0.09498648
0.16107403 0.053299606 0.11445297 0.19910964 -0.004962588 -0.07962913 0.016784988 0.14831498
-0.0035301514 0.06558574 -0.27866074 0.17283605 -0.006086968 -0.11152444 0.00083954504 -0.053435236

fc3.bias f4 [2]
00000000: a699 aabc f651 7f3c
-0.020825218 0.015583506
